model/keypoint_classifier/keypoint_classifier.tflite (tflite, 7540 bytes, 6 tensors)

sequential_2/dense_8/BiasAdd/ReadVariableOp f4 [26]
0	0xbf4812ba	-0.78153574
1	0x3eb32917	0.34992287
2	0xbfb4b425	-1.4117476
3	0x3f4edaa7	0.80802387
4	0xbe865862	-0.26239306
5	0x3f4344df	0.76276964
6	0x3f42d634	0.761081
7	0x3ec21191	0.37904027
8	0x3f5b0ce3	0.8556654
9	0xbeacda51	-0.33760312
10	0xbe931e3f	-0.28734013
11	0x3fa166ce	1.2609499
12	0xbf80e02f	-1.0068415
13	0xbd4740d2	-0.0486458
14	0xbfa81deb	-1.313413
15	0x3c31230a	0.010811577
16	0x3dce15b6	0.10062735
17	0x3ebf25d8	0.3733356
18	0xc01b46a7	-2.4261873
19	0xbe05f6fa	-0.13082495
20	0x3f22708f	0.63453
21	0x3fa70090	1.3047047
22	0x3edfbf0d	0.43700448
23	0xbd1cce43	-0.038282644
24	0xbde7c65b	-0.1131713
25	0xbe7e41ea	-0.24829832

sequential_2/dense_7/BiasAdd/ReadVariableOp f4 [10]
0	0x3f4200ba	0.7578236
1	0x3f9f3ef7	1.244109
2	0x3fd2d7e4	1.6472135
3	0x3f9c1446	1.2193687
4	0xbf3fc231	-0.7490569
5	0x40271fc8	2.6113148
6	0xbf263e40	-0.64938736
7	0x3f7ba342	0.98295987
8	0xbe7ec292	-0.2487891
9	0x3f5ea9dc	0.86977935

sequential_2/dense_6/BiasAdd/ReadVariableOp f4 [20]
0	0xbffbde43	-1.9677204
1	0xbf843d78	-1.0331259
2	0x3f9f2fb7	1.2436436
3	0xbd42e1f4	-0.047578767
4	0x3e8250a2	0.25452143
5	0xbe7a9ca3	-0.24473815
6	0xbe62af03	-0.22137074
7	0xbef488f8	-0.4776075
8	0xbfd8c0d7	-1.693385
9	0xbe87e32f	-0.26540515
10	0xbf61db48	-0.8822522
11	0x3ea5299e	0.32258314
12	0xbfdd7033	-1.7299865
13	0x3eeaa959	0.45832327
14	0xbf912d3f	-1.1341933
15	0xbfcdee47	-1.6088341
16	0xbfbe5c3a	-1.4871895
17	0xbf302415	-0.68805057
18	0x3d5c8b5c	0.05384384
19	0xbf35cb1a	-0.71013033

sequential_2/dense_6/MatMul f4 [20, 42]
0	0xbdb18f78	-0.086699426
1	0x3e5011fc	0.2031936
2	0xbf27446b	-0.6533877
3	0x3f387c88	0.7206502
4	0xbf31225a	-0.6919304
5	0xbcbbd8c1	-0.022930505
6	0xbf3de868	-0.7418275
7	0xbdebe401	-0.11518098
8	0xbf317be3	-0.6932966
9	0xbc0aad87	-0.008464224
10	0xbf2503d3	-0.6445896
11	0xbe72b1be	-0.23700616
12	0xbe9bc54c	-0.30423963
13	0xbe1de584	-0.15419585
14	0xbdfe9832	-0.12431373
15	0xbd5c8616	-0.05383881
16	0xbca8448a	-0.020540494
17	0x3d38dbec	0.04513161
18	0xbf526118	-0.82179403
19	0xbe5a77c5	-0.21334751
20	0xbdb06ce5	-0.0861452
21	0xbde48d81	-0.11159802
22	0x3da78505	0.08179668
23	0x3dbd5d9c	0.0924637
24	0x3e558743	0.2085238
25	0x3e181c9c	0.14854664
26	0xbf0a5e59	-0.54050213
27	0xbe8955c9	-0.2682326
28	0x3eb9ab49	0.36263493
29	0xbdfb692f	-0.122759216
30	0x3f37fef9	0.7187343
31	0x3d9e9d63	0.07744863
32	0x3f19ca5c	0.600744
33	0x3daee471	0.085396655
34	0x3ea08788	0.31353402
35	0xbed22bae	-0.4104895
36	0x3f734db6	0.9504045
37	0xbe856e39	-0.26060656
38	0x3fbeea23	1.4915203
39	0xbe2b5050	-0.16729856
40	0x3ffcf00f	1.976076
41	0xbd4fece0	-0.05076301
42	0xbd685e18	-0.05673036
43	0x3c1eb4c0	0.009686649
44	0x3e70614a	0.23474613
45	0x3f12ace8	0.57295084
46	0x3d5fe0e7	0.054657843
47	0x3ddaf735	0.10691682
48	0xbe8b0660	-0.271533
49	0x3dc1ace6	0.09456806
50	0xbf228678	-0.63486433
51	0x3de338c1	0.11094809
52	0x3e8c1586	0.2736017
53	0x3d3f30a6	0.046677254
54	0x3de6a9db	0.11262866
55	0x3d1c81fc	0.0382099
56	0x3da15d25	0.07879094
57	0x3db77c5e	0.08959268
58	0xbc0c9709	-0.008580931
59	0x3ded6522	0.11591555
60	0x3e8a5ac9	0.2702239
61	0x3d53c489	0.051701102
62	0x3e0984f6	0.13429627
63	0x3d34a5e8	0.044103533
64	0x3d99476f	0.07484328
65	0x3def9c48	0.1169973
66	0x3a240580	0.0006256923
67	0x3df1db97	0.118094616
68	0xbdca764f	-0.09885847
69	0x3d67005a	0.05639682
70	0xbd3ca33e	-0.046054117
71	0x3d8b3041	0.06796313
72	0x3c854854	0.01626984
73	0x3e4d0b05	0.20023735
74	0xbe737434	-0.23774797
75	0xc02b316f	-2.6748922
76	0xbf28cf06	-0.6594089
77	0x3d6099fc	0.05483435
78	0xbdcc83be	-0.09986065
79	0x3d5f0879	0.05445144
80	0x3df4dda3	0.11956336
81	0x3daa10e2	0.083040014
82	0x3da71dac	0.08159956
83	0x3de1c82d	0.110245086
84	0x3dfbc2d0	0.12293017
85	0x3e5345fc	0.20632166
86	0xbd8e8431	-0.06958807
87	0xbea82966	-0.32844085
88	0x3f0d85dd	0.55282384
89	0x3ea53e93	0.32274303
90	0x3f183241	0.5945168
91	0x3f8158cf	1.0105227
92	0x3eaa2d23	0.33237562
93	0x3fbcf7ae	1.4763086
94	0x3d975830	0.07389867
95	0xbe74130f	-0.23835395
96	0x3ec32c6f	0.38119838
97	0xbc7d013a	-0.015442187
98	0x3ebfccaa	0.37460834
99	0x3ebaba2c	0.36470163
100	0x3ec7fda3	0.39060697
101	0x3f06e749	0.52696663
102	0x3d1e84c3	0.03870083
103	0x3f03df04	0.5151217
104	0x3e967a7e	0.2939033
105	0x3eccc1d2	0.39991623
106	0x3ec1757f	0.37784955
107	0x3f0a824b	0.5410506
108	0x3e95489c	0.2915696
109	0x3e9516df	0.29119012
110	0x3e53c2f3	0.20679836
111	0x3ff008c1	1.8752671
112	0x3d9d7534	0.0768837
113	0x4017f4ce	2.3743167
114	0xbea77f79	-0.3271444
115	0x3fc828fb	1.5637506
116	0xbeaeeb4f	-0.341639
117	0x3fbe5a1d	1.487125
118	0x3f29ec5b	0.66376275
119	0x402ee44b	2.732684
120	0x3f1c5d82	0.6108018
121	0x40195d14	2.396306
122	0x3e17327f	0.14765356
123	0x4005ce9f	2.0907362
124	0xbe6f4132	-0.23364714
125	0x3ff69f6d	1.9267403
126	0xbe35cd81	-0.17754175
127	0x3e1cf9fe	0.1532974
128	0xbf77b341	-0.96757895
129	0xbed615c9	-0.41813496
130	0xbeecdcfa	-0.46262342
131	0xbe301217	-0.171944
132	0xbeb1c04c	-0.34717023
133	0xbe351dd5	-0.17687161
134	0xbeb50f1f	-0.353631
135	0x3bd0c4f0	0.006371133
136	0x3e1be832	0.15225294
137	0xbd2abd8e	-0.04168468
138	0x3e40a5f4	0.18813306
139	0x3e11ef24	0.14251381
140	0x3ee30211	0.44337514
141	0x3ee4d4de	0.44693655
142	0x3f15d116	0.58522165
143	0x3f09e2aa	0.53861487
144	0x3e9cbc18	0.30612254
145	0xbd4010e9	-0.046891127
146	0xbd8954bb	-0.06705614
147	0xbce1ca49	-0.027562277
148	0x3e95ec2c	0.29281747
149	0x3deb9449	0.115028925
150	0x3ed98557	0.42484543
151	0x3dbdc658	0.09266347
152	0x3ec75288	0.38930154
153	0xbdd68032	-0.1047367
154	0xbec72cb0	-0.3890128
155	0xbdaa5a4a	-0.083180025
156	0xbe8faee2	-0.28063112
157	0xbb3040b0	-0.0026894026
158	0xbe6caa3b	-0.23111813
159	0xbdfc815c	-0.12329361
160	0x3db280e5	0.08715991
161	0xbea5e93d	-0.3240451
162	0xbeeb25f4	-0.45927393
163	0xbeaf50e0	-0.3424139
164	0xbf137a63	-0.5760862
165	0xbef2c019	-0.47412184
166	0xbf1dec7c	-0.6168897
167	0xbed1873c	-0.40923488
168	0xbe4a321a	-0.19745675
169	0x3b2e5d00	0.0026605725
170	0xbe64604a	-0.22302356
171	0x3fd9b90b	1.7009596
172	0xbeee81e0	-0.46583462
173	0x3f2b239f	0.6685123
174	0xbef235f5	-0.4730679
175	0x3f42ec31	0.7614165
176	0xbf0ecd9e	-0.55782497
177	0x3f4e3a83	0.8055803
178	0xbf1a48da	-0.6026741
179	0x3d883a2f	0.06651723
180	0xbe847df0	-0.25877333
181	0x3c8dc25b	0.01730459
182	0x3e0bfb5e	0.13670108
183	0x3e72aa31	0.23697735
184	0x3e48fedb	0.1962847
185	0x3eba2145	0.36353508
186	0xbf807b0f	-1.0037555
187	0x3d5a94f8	0.053364724
188	0xbe8a395e	-0.26996893
189	0xbd266bf3	-0.040630292
190	0x3d643a94	0.055719927
191	0x3dddefce	0.10836755
192	0x3d10ab43	0.035319578
193	0x3de902e7	0.11377507
194	0xbfca8849	-1.5822841
195	0xbd03e579	-0.032201264
196	0xbeb71d2d	-0.35764447
197	0xbe1611f6	-0.14655289
198	0x3e1c8306	0.15284356
199	0xbc0c020a	-0.008545408
200	0x3e7441c0	0.23853207
201	0xbb6161fe	-0.0034390683
202	0xbfed7f19	-1.8554412
203	0x3c8b04d2	0.016970072
204	0xbe86bd40	-0.2631626
205	0xbc4fbdd4	-0.012679536
206	0x3ea67790	0.32513094
207	0x3e589fc3	0.21154694
208	0x3ee7fb9f	0.4530916
209	0x3eb1cc51	0.34726194
210	0xbe27e50e	-0.16395971
211	0xbdd5afd8	-0.1043393
212	0x3f01463a	0.5049778
213	0xbfaf5589	-1.3697978
214	0x3f0f288d	0.5592125
215	0xbed9b170	-0.42518187
216	0x3f2e2547	0.6802563
217	0xbefd7a7d	-0.49507514
218	0x3f4f8b2a	0.8107172
219	0xbe80b7b4	-0.25140154
220	0x3f0e71ab	0.55642194
221	0xbe5939a1	-0.2121339
222	0x3f1800a9	0.5937601
223	0xbe089974	-0.13339788
224	0x3f11d137	0.5695986
225	0xbe1b6b7b	-0.1517772
226	0x3f1651ba	0.58718455
227	0xbd211022	-0.039322026
228	0x3fb7fffd	1.4374996
229	0xbe172452	-0.14759949
230	0x3f2fdd5d	0.6869715
231	0xbea59123	-0.32337293
232	0x3e82d88e	0.25555843
233	0xbea1580c	-0.31512487
234	0x3ee34281	0.44386676
235	0xbccc33c5	-0.02492703
236	0x3fb5a6a3	1.4191478
237	0xbdd2b90e	-0.10289203
238	0xbf30c86b	-0.69055814
239	0xbe89dd88	-0.26926827
240	0xbf3a0d07	-0.7267613
241	0xbdf9f5b8	-0.1220507
242	0xbefd17ec	-0.49432313
243	0xbe2078b9	-0.15671052
244	0x3eb94b99	0.3619049
245	0xbdb254c8	-0.08707577
246	0xbe873c0d	-0.26413003
247	0xbe11f2d7	-0.14252792
248	0xbea74890	-0.32672548
249	0xbd8621a7	-0.065493874
250	0xbe11b2b9	-0.14228334
251	0x3da79a47	0.08183723
252	0x3e210138	0.15723121
253	0x3df4bdd4	0.11950269
254	0x3edd0916	0.43170995
255	0xbfcb858a	-1.5900128

sequential_2/dense_7/MatMul f4 [10, 20]
0	0xbda91f21	-0.082578905
1	0xbe1de334	-0.15418702
2	0x3db57a3a	0.088612035
3	0x3f0c5795	0.5482114
4	0xbf0fa1d4	-0.56106305
5	0x3f75419d	0.9580324
6	0x3fd80211	1.6875631
7	0xbf55f5c3	-0.8357813
8	0x40173306	2.3624892
9	0x3d6f85d5	0.05847724
10	0x3de00523	0.1093848
11	0x3e34803e	0.17627046
12	0x3ecea649	0.4036124
13	0x3eb1e0e6	0.34741896
14	0xbe21a316	-0.15784869
15	0x3e7e43db	0.24830572
16	0x3e858823	0.26080427
17	0x3ea580da	0.32324868
18	0x3e6525b5	0.22377665
19	0x3e273965	0.16330488
20	0xc0141287	-2.3136308
21	0xbf4fc312	-0.8115703
22	0x3f6cbcdb	0.9247567
23	0x3edca2d4	0.43092978
24	0x3f285f9b	0.6577088
25	0x3e5324df	0.20619534
26	0xbb768270	-0.0037614368
27	0x3f29f510	0.6638956
28	0xbe957dc7	-0.29197523
29	0x3f54f852	0.83191407
30	0xc014ec22	-2.3269124
31	0x3ef598d0	0.4796815
32	0x3da49252	0.08035721
33	0x3e8dbb92	0.27682167
34	0x3e978f82	0.29601675
35	0x3eb71e83	0.35765466
36	0xbfd38686	-1.6525428
37	0xbf573895	-0.8407071
38	0x3e16ffdf	0.14746045
39	0xbfdce66d	-1.725782
40	0x3f5a7677	0.85337013
41	0xbf01a280	-0.5063858
42	0x3d642656	0.055700622
43	0x3f5e48f3	0.8683006
44	0x3faa398e	1.3298814
45	0xbf56fcfe	-0.83979785
46	0xbeecea19	-0.46272352
47	0x3ed8b634	0.4232651
48	0xbc74068a	-0.014894137
49	0x3f5303e7	0.8242783
50	0xbe95dc0c	-0.29269445
51	0xbf862ce7	-1.0482453
52	0x3ef1679c	0.4714936
53	0x3d7ec49a	0.062199213
54	0x3fa35c72	1.2762587
55	0x3ec8eca8	0.39243054
56	0xbf1856c7	-0.5950741
57	0x3f09e8eb	0.5387103
58	0xbeb270eb	-0.34851775
59	0xbcaa0790	-0.02075556
60	0x3ee20835	0.44146886
61	0x3ff989e5	1.9495207
62	0xbfb67384	-1.4254003
63	0x3e8c8bb8	0.27450347
64	0xbe6b4e21	-0.22979023
65	0xbc9debb2	-0.019277427
66	0xbe1cafd6	-0.15301451
67	0x3e8deb89	0.27718762
68	0x3e884ef9	0.2662275
69	0x3e8e1276	0.2774846
70	0x3dbd5ded	0.092464305
71	0xbd6d6511	-0.057957713
72	0x3fd7fd5d	1.6874195
73	0xbf37e402	-0.7183229
74	0x3eb5c022	0.35498148
75	0x4001835f	2.0236433
76	0x3f4aac01	0.7916871
77	0xbd3d0380	-0.046145916
78	0x3e6c6d74	0.23088628
79	0xbbaac145	-0.005211028
80	0x3f53e836	0.827762
81	0x3f248c5a	0.6427666
82	0xbe315270	-0.17316604
83	0x3f521e67	0.8207764
84	0x3de9752d	0.11399303
85	0x3efdbcca	0.49558097
86	0x3f089700	0.5335541
87	0x3f4d8357	0.80278534
88	0x3ef67282	0.48134238
89	0x3f8e882b	1.1135305
90	0xbde1aefb	-0.11019703
91	0x3f717e10	0.9433298
92	0x3f5f21b0	0.8716078
93	0xbf2af8c5	-0.6678584
94	0xbeb1c13d	-0.34717742
95	0x3f11f0ce	0.57008064
96	0x3e49cc78	0.19706905
97	0x3f4a3fdc	0.7900369
98	0x3f51db6e	0.8197545
99	0x3f83c4ba	1.0294411
100	0x3e915939	0.28388384
101	0x3ee543bb	0.44778237
102	0x3bac1d0f	0.0052524875
103	0xbe986f13	-0.29772243
104	0xbf974194	-1.1816888
105	0x3edc2937	0.43000194
106	0xbb505a50	-0.0031792112
107	0x3d9db54d	0.07700596
108	0xbf399be3	-0.7250349
109	0xbd1679bf	-0.0367372
110	0x3f6456ae	0.8919476
111	0x3f63c1b8	0.88967466
112	0x3d331c0b	0.043727916
113	0xbf23b644	-0.6394999
114	0xbf2fd830	-0.6868925
115	0xbec6e900	-0.3884964
116	0x3f5394dc	0.82649016
117	0xbddad0a1	-0.10684324
118	0x3dd6bc2d	0.104851104
119	0xbc4b1e5b	-0.012397374
120	0x3f2f73c5	0.68536025
121	0x403a8316	2.9142509
122	0xbd215733	-0.0393898
123	0x3f09abd5	0.5377782
124	0x3f35da18	0.7103591
125	0xbd16feb6	-0.036864005
126	0x3e055998	0.13022459
127	0x3e239299	0.15973891
128	0x3f669aa4	0.9007971
129	0x3e8baaa1	0.27278617
130	0x3f9db2ba	1.2320168
131	0xbea62b16	-0.32454747
132	0x3e821243	0.25404558
133	0xbf548604	-0.8301699
134	0x3f0fdc24	0.5619528
135	0x3fc29cd0	1.5204105
136	0x3fe93139	1.8218147
137	0x3ecb24d1	0.39676526
138	0x3d784479	0.060612176
139	0x3e549e9a	0.20763627
140	0x3ff95448	1.9478846
141	0xbf6169ff	-0.8805236
142	0x3ded47a7	0.11585932
143	0xbe33e773	-0.1756876
144	0x3eac7459	0.33682516
145	0x3d668a54	0.056284264
146	0xbecfcd63	-0.40586385
147	0x3f0a3286	0.5398334
148	0x3ea44097	0.32080528
149	0xbe150c2d	-0.14555426
150	0x3d8e9ca6	0.06963472
151	0xbdd2808f	-0.10278427
152	0x3e72bc06	0.23704538
153	0x3e69b967	0.22824632
154	0x3ffd2b6e	1.9778879
155	0x3e0b7d28	0.13621962
156	0x3e8443e4	0.25833046
157	0x3cf0f06a	0.029411513
158	0x3c573263	0.013134572
159	0xbe409be6	-0.1880947
160	0x3f2d0340	0.67583084
161	0x3fc9f2b9	1.5777198
162	0x3f39ab62	0.72527134
163	0x3ea70b77	0.32625934
164	0x3ebd4a95	0.36970964
165	0x3f12d699	0.573587
166	0x3f537a00	0.8260803
167	0x3f250260	0.6445675
168	0x3f26f2c4	0.6521418
169	0xbd3e7415	-0.046497423
170	0x3f5e582c	0.8685329
171	0x3f857b6d	1.0428292
172	0x3f26df71	0.65184695
173	0x3f0a88d6	0.54115045
174	0x3fd245e6	1.6427581
175	0x3ec536e4	0.3851844
176	0x3ea85e57	0.32884476
177	0xbd7b585c	-0.061363563
178	0x3b9a0255	0.004699985
179	0x3ca21deb	0.019789657
180	0xbe48a0da	-0.1959261
181	0x3e23b317	0.15986286
182	0xbfd992e2	-1.699795
183	0xbde580e0	-0.112062216
184	0x3f0e933f	0.5569343
185	0x3e4ec3e8	0.2019192
186	0x3de2a6a8	0.110669434
187	0x3fbf47f5	1.4943835
188	0x3f106f1a	0.5641953
189	0x3f8baae7	1.091153
190	0x3f457e78	0.771461
191	0x3e215761	0.15755989
192	0x3dd6e4c7	0.104928546
193	0x3d7910da	0.060807087
194	0x3d9b6bed	0.075889446
195	0xbe8c6d88	-0.27427316
196	0x3f62f75e	0.886587
197	0x3f89845e	1.074352
198	0x3fd60fd9	1.6723586
199	0x3fd4d0f8	1.6626272

sequential_2/dense_8/MatMul f4 [26, 10]
0	0xbf450f98	-0.7697692
1	0xbeebd9cf	-0.46064612
2	0x3edc4aa3	0.43025693
3	0xbdcd24de	-0.100167975
4	0x3e87dac7	0.265341
5	0xbf448c5d	-0.7677668
6	0x3f29d8e0	0.6634655
7	0xbd9f424a	-0.077763155
8	0xbc89c853	-0.016819155
9	0xbe1a665e	-0.15078112
10	0xbd170082	-0.03686572
11	0xbf4027a0	-0.7506046
12	0xbf40cb20	-0.75309944
13	0x3f1cdfcf	0.61279005
14	0xbeff0002	-0.49804693
15	0x3f0ef8a1	0.5584813
16	0x3c921a03	0.017834669
17	0xbf7248db	-0.9464242
18	0x3e00e3ba	0.12586871
19	0xbf4bdbad	-0.79632074
20	0xbe2263b6	-0.15858349
21	0xbef952b1	-0.486959
22	0xbe799b38	-0.24375618
23	0x3e8dcd6f	0.27695796
24	0x3e2bc299	0.16773452
25	0xbf803bd9	-1.0018264
26	0x3f231f41	0.63719565
27	0xbf797523	-0.9744436
28	0xbe5fbfb2	-0.2185047
29	0x3ec16e1d	0.37779322
30	0x3f0badff	0.5456237
31	0xbef66277	-0.48121998
32	0xbcb4c8fb	-0.022068491
33	0xbf19d10b	-0.600846
34	0x3ef445a7	0.4770939
35	0xbe538666	-0.20656738
36	0xbf1a1589	-0.6018911
37	0xbff59f4d	-1.918924
38	0xbf7a7b84	-0.9784472
39	0x3e6f6b7d	0.23380847
40	0x3e6bc35e	0.23023745
41	0xbf281c93	-0.656686
42	0xbf40961b	-0.7522904
43	0x3e31f710	0.17379403
44	0xbd0ef661	-0.034902934
45	0xbe76333b	-0.2404298
46	0x3eae876c	0.34087694
47	0x3ea02e9c	0.3128556
48	0x3e6dd1f5	0.23224624
49	0xbf191b55	-0.5980733
50	0x3c1c6486	0.009545451
51	0xbf1ecfcf	-0.6203584
52	0xbee75222	-0.4517985
53	0x3e564b3a	0.20927134
54	0xbe03124c	-0.12799948
55	0xbd488df3	-0.0489635
56	0x3ed8da01	0.42353824
57	0xbf373f5c	-0.71581054
58	0x3e80a1af	0.25123355
59	0xbf29c18a	-0.6631094
60	0x3f110ff5	0.56664973
61	0xbfc39cd6	-1.5282238
62	0x3c79f5d7	0.015256367
63	0x3e2bc56c	0.16774529
64	0xbf680f14	-0.9064801
65	0xbea476b7	-0.32121822
66	0xbe947537	-0.28995678
67	0x3e72e58f	0.23720382
68	0x3d30ac00	0.043132782
69	0xbdb9ebd6	-0.09078185
70	0xbebccce9	-0.36875084
71	0xbf6d5b93	-0.92717856
72	0x3ebc739c	0.36806953
73	0x3e555773	0.2083414
74	0x3f164b1b	0.5870835
75	0x3e5fc40d	0.21852131
76	0xbfce348b	-1.6109785
77	0x3d8c7184	0.06857589
78	0xbf133611	-0.57504374
79	0xbe64b9fa	-0.2233657
80	0x3efe0ff6	0.49621552
81	0xbf6f4b80	-0.9347458
82	0x3f6ae32e	0.917529
83	0x3e45c096	0.19311747
84	0x3d43c290	0.04779297
85	0xbf8be9aa	-1.0930684
86	0xbf1b7798	-0.6072936
87	0x3e0d9f57	0.13830315
88	0xbf5a2008	-0.85205126
89	0xbf0c99b5	-0.5492204
90	0xbe2e4c92	-0.17021397
91	0xbc441bbf	-0.011969506
92	0x3f462248	0.7739606
93	0x3db57a67	0.08861237
94	0x3d116e53	0.035505604
95	0xbf1decf1	-0.6168967
96	0x3cfdfb1c	0.031003527
97	0x3e58d728	0.21175826
98	0xbea24090	-0.31689882
99	0xbfcfb238	-1.6226263
100	0xbf34d514	-0.7063763
101	0xbfb52b96	-1.4153926
102	0xbf85dce3	-1.0458034
103	0xbf1b1cf3	-0.6059105
104	0xbf1cd4e1	-0.6126233
105	0xbf59e673	-0.8511726
106	0xbe5bf46c	-0.21479958
107	0xbffd51bc	-1.9790568
108	0xbe88adeb	-0.2669519
109	0xbfacdc56	-1.3504741
110	0xbfd22a30	-1.6419125
111	0xbe3e7727	-0.1860014
112	0x3f70f200	0.9411926
113	0xbdef13f7	-0.1167373
114	0xbfa9fd40	-1.3280411
115	0xbba969a3	-0.0051700636
116	0xbf97be7e	-1.1855009
117	0x3f2ee01a	0.683107
118	0xbf3ff94f	-0.7498979
119	0xbfd68c6e	-1.6761606
120	0x3ee9d163	0.45667562
121	0xbf04185a	-0.5159966
122	0xbec529e1	-0.38508514
123	0xbfee956b	-1.8639349
124	0xbf1aac2f	-0.6041898
125	0x3e6f1b90	0.23350358
126	0xbde96954	-0.11397043
127	0x3f1f3220	0.6218586
128	0x3f4e30a2	0.8054296
129	0xbfbf1a71	-1.4929944
130	0x3f15e8a5	0.5855811
131	0x3f2c06de	0.6719798
132	0xbe8b05c6	-0.27152842
133	0xc02d8654	-2.7113237
134	0xbf10cd7e	-0.56563556
135	0x3dccb394	0.09995189
136	0xbf52b6d6	-0.82310236
137	0xbe5d91f5	-0.2163771
138	0x3e0bf718	0.13668478
139	0xbf5ad3ce	-0.8547944
140	0x3e9e4573	0.3091236
141	0xbf07a90e	-0.5299233
142	0xbf16bb63	-0.5887968
143	0x3e1995e8	0.14998591
144	0x3f3e3c86	0.743111
145	0xbf3d1dbc	-0.73873496
146	0x3f227dd4	0.6347325
147	0xbfaa7792	-1.331774
148	0xbf3cc784	-0.73741937
149	0xbd322921	-0.043496255
150	0xbf3afdf4	-0.7304375
151	0x3dd98fba	0.10623117
152	0xbd24a5a4	-0.04019703
153	0xbfd01c6e	-1.6258676
154	0x3e36d5a6	0.17854938
155	0xbf92ffbc	-1.1484294
156	0xbe6ba88c	-0.23013514
157	0x3dc33ca4	0.09533051
158	0xbf7580c2	-0.95899594
159	0x3f58abfd	0.84637433
160	0xbf2bd8bc	-0.67127585
161	0x3f87b375	1.0601641
162	0x3eb2148e	0.34781307
163	0xbfc3ede2	-1.5306971
164	0xbd857588	-0.06516558
165	0xbf48a035	-0.78369457
166	0xbf2b8352	-0.66997254
167	0x3d5834ce	0.052784733
168	0xbd374baf	-0.044749912
169	0xbe02e3dc	-0.12782234
170	0x3e84c881	0.25934222
171	0xbf423fca	-0.75878584
172	0xbf0df96a	-0.554587
173	0xbf0e574c	-0.55601954
174	0x3dc9befe	0.09850882
175	0xbd9378e0	-0.072007895
176	0xbe563273	-0.20917682
177	0xbfb3fddc	-1.4061847
178	0x3dac44f4	0.08411589
179	0x3ebb5c92	0.36594063
180	0x3dc6b92d	0.09703288
181	0xbf0be084	-0.5463946
182	0xbe0ac68c	-0.13552302
183	0xbef9dc2e	-0.48800796
184	0x3f0dfbf8	0.554626
185	0xbf510a08	-0.8165593
186	0x3d69b4e8	0.05705729
187	0x3e1a44ae	0.15065262
188	0x3f0358d7	0.51307434
189	0x3e642c6e	0.22282574
190	0x3e239d38	0.15977943
191	0xbf2adf88	-0.6674733
192	0xbf036039	-0.513187
193	0x3e36baea	0.1784474
194	0xbd033386	-0.03203156
195	0xbd5242c9	-0.051333223
196	0x3ecedf4a	0.4040473
197	0xbf4d07a2	-0.8008977
198	0x3e86e8c3	0.26349458
199	0xbf34b412	-0.70587265
200	0x3f144ba0	0.57927895
201	0xbf3937d8	-0.72350836
202	0xbfbbb0e1	-1.4663354
203	0xbed0b515	-0.40763155
204	0xbfbfd82b	-1.4987844
205	0x3f737567	0.95101017
206	0xbedfe7d9	-0.43731573
207	0xbf26f941	-0.6522408
208	0xbeceebb6	-0.40414208
209	0xbe4befda	-0.19915715
210	0xbf032a3f	-0.5123634
211	0xbf176099	-0.5913177
212	0xbfbf1cac	-1.4930625
213	0xbf20ca55	-0.62808734
214	0xc00c6420	-2.1936111
215	0x3f83dd77	1.0301961
216	0xbee87a82	-0.45405966
217	0xbe9c28cb	-0.30499873
218	0xbfa757ed	-1.3073708
219	0x3f60e00f	0.87841886
220	0xbfb443bf	-1.4083174
221	0xbf0dc69c	-0.5538118
222	0xbf19b6af	-0.6004438
223	0x3ec2974b	0.38006052
224	0xbdb72800	-0.08943176
225	0x3e965c8a	0.29367477
226	0x3d8ede28	0.06975967
227	0xbfaf8fad	-1.3715721
228	0xbe9298d6	-0.2863223
229	0x3eeab8bd	0.4584407
230	0x3e99d9ea	0.30049068
231	0xbf598478	-0.84967756
232	0xbf5eca4f	-0.8702745
233	0x3e952f61	0.2913771
234	0xbf956050	-1.1670017
235	0x3d8847dc	0.06654331
236	0x3d900a8f	0.07033264
237	0x3f388f68	0.7209382
238	0xbe5e665d	-0.21718736
239	0xbe9d6146	-0.30738276
240	0x3d729f58	0.059233993
241	0x3d4e1337	0.050311293
242	0x3ea93e72	0.33055454
243	0x3d85f4b2	0.065408126
244	0x3d04a292	0.0323816
245	0xbf12d391	-0.57354075
246	0x3dd93a13	0.1060678
247	0x3ea244aa	0.31693012
248	0xbdaac85c	-0.08338997
249	0xbff683f8	-1.9259024
250	0xbfed9e72	-1.8563979
251	0xbebeb26b	-0.37245497
252	0xbf176fea	-0.5915514
253	0x3f186e03	0.59542865
254	0xbea169fe	-0.31526178
255	0xbe1d9064	-0.15387112
